nohup: ignoring input
Model Name: DNN-2
Dataset: Reduced
Training Method: L1 Reg+Early Stopping
Batch Normalization: Yes

Model: "sequential"
_________________________________________________________________
 Layer (type)                Output Shape              Param #   
=================================================================
 dense (Dense)               (None, 19)                380       
                                                                 
 batch_normalization (BatchN  (None, 19)               76        
 ormalization)                                                   
                                                                 
 leaky_re_lu (LeakyReLU)     (None, 19)                0         
                                                                 
 dense_1 (Dense)             (None, 32)                640       
                                                                 
 batch_normalization_1 (Batc  (None, 32)               128       
 hNormalization)                                                 
                                                                 
 leaky_re_lu_1 (LeakyReLU)   (None, 32)                0         
                                                                 
 dense_2 (Dense)             (None, 32)                1056      
                                                                 
 batch_normalization_2 (Batc  (None, 32)               128       
 hNormalization)                                                 
                                                                 
 leaky_re_lu_2 (LeakyReLU)   (None, 32)                0         
                                                                 
 dense_3 (Dense)             (None, 1)                 33        
                                                                 
=================================================================
Total params: 2,441
Trainable params: 2,275
Non-trainable params: 166
_________________________________________________________________
None

… 