nohup: ignoring input
Model Name: DNN-2
Dataset: Reduced
Training Method: L1 Reg+Early Stopping
Batch Normalization: No

Model: "sequential"
_________________________________________________________________
 Layer (type)                Output Shape              Param #   
=================================================================
 dense (Dense)               (None, 19)                380       
                                                                 
 leaky_re_lu (LeakyReLU)     (None, 19)                0         
                                                                 
 dense_1 (Dense)             (None, 32)                640       
                                                                 
 leaky_re_lu_1 (LeakyReLU)   (None, 32)                0         
                                                                 
 dense_2 (Dense)             (None, 32)                1056      
                                                                 
 leaky_re_lu_2 (LeakyReLU)   (None, 32)                0         
                                                                 
 dense_3 (Dense)             (None, 1)                 33        
                                                                 
=================================================================
Total params: 2,109
Trainable params: 2,109
Non-trainable params: 0
_________________________________________________________________
None

… 