nohup: ignoring input
Model Name: CNN
Dataset: FullNPA
Training Method: L1 Reg+Early Stopping
Batch Normalization: No

Model: "sequential"
_________________________________________________________________
 Layer (type)                Output Shape              Param #   
=================================================================
 conv1d (Conv1D)             (None, 5, 80)             1360      
                                                                 
 leaky_re_lu (LeakyReLU)     (None, 5, 80)             0         
                                                                 
 gru (GRU)                   (None, 5, 100)            54600     
                                                                 
 leaky_re_lu_1 (LeakyReLU)   (None, 5, 100)            0         
                                                                 
 dense (Dense)               (None, 5, 50)             5050      
                                                                 
 leaky_re_lu_2 (LeakyReLU)   (None, 5, 50)             0         
                                                                 
 dense_1 (Dense)             (None, 5, 25)             1275      
                                                                 
 leaky_re_lu_3 (LeakyReLU)   (None, 5, 25)             0         
                                                                 
 dense_2 (Dense)             (None, 5, 10)             260       
                                                                 
 leaky_re_lu_4 (LeakyReLU)   (None, 5, 10)             0         
                                                                 
 dense_3 (Dense)             (None, 5, 1)              11        
                                                                 
=================================================================
Total params: 62,556
Trainable params: 62,556
Non-trainable params: 0
_________________________________________________________________
None

… 