nohup: ignoring input
Model Name: Large DNN
Dataset: Reduced
Training Method: L1 Reg+Early Stopping
Batch Normalization: Yes

Model: "sequential"
_________________________________________________________________
 Layer (type)                Output Shape              Param #   
=================================================================
 dense (Dense)               (None, 85)                1700      
                                                                 
 batch_normalization (BatchN  (None, 85)               340       
 ormalization)                                                   
                                                                 
 leaky_re_lu (LeakyReLU)     (None, 85)                0         
                                                                 
 dense_1 (Dense)             (None, 100)               8600      
                                                                 
 batch_normalization_1 (Batc  (None, 100)              400       
 hNormalization)                                                 
                                                                 
 leaky_re_lu_1 (LeakyReLU)   (None, 100)               0         
                                                                 
 dense_2 (Dense)             (None, 50)                5050      
                                                                 
 batch_normalization_2 (Batc  (None, 50)               200       
 hNormalization)                                                 
                                                                 
 leaky_re_lu_2 (LeakyReLU)   (None, 50)                0         
                                                                 
 dense_3 (Dense)             (None, 25)                1275      
                                                                 
 batch_normalization_3 (Batc  (None, 25)               100       
 hNormalization)                                                 
                                                                 
 leaky_re_lu_3 (LeakyReLU)   (None, 25)                0         
                                                                 
 dense_4 (Dense)             (None, 10)                260       
                                                                 
 batch_normalization_4 (Batc  (None, 10)               40        
 hNormalization)                                                 
                                                                 
 leaky_re_lu_4 (LeakyReLU)   (None, 10)                0         
                                                                 
 dense_5 (Dense)             (None, 1)                 11        
                                                                 
=================================================================
Total params: 17,976
Trainable params: 17,436
Non-trainable params: 540
_________________________________________________________________
None

… 